Dataset has been loaded
2567 train samples
453 test samples
_________________________________________________________________
Layer (type)                 Output Shape              Param #   
=================================================================
conv1 (XnorConv2D)           (None, 128, 64, 64)       1152      
_________________________________________________________________
bn1 (BatchNormalization)     (None, 128, 64, 64)       512       
_________________________________________________________________
act1 (Activation)            (None, 128, 64, 64)       0         
_________________________________________________________________
conv2 (XnorConv2D)           (None, 128, 64, 64)       147456    
_________________________________________________________________
pool2 (MaxPooling2D)         (None, 128, 32, 32)       0         
_________________________________________________________________
bn2 (BatchNormalization)     (None, 128, 32, 32)       512       
_________________________________________________________________
act2 (Activation)            (None, 128, 32, 32)       0         
_________________________________________________________________
conv3 (XnorConv2D)           (None, 256, 32, 32)       294912    
_________________________________________________________________
bn3 (BatchNormalization)     (None, 256, 32, 32)       1024      
_________________________________________________________________
act3 (Activation)            (None, 256, 32, 32)       0         
_________________________________________________________________
conv4 (XnorConv2D)           (None, 256, 32, 32)       589824    
_________________________________________________________________
pool4 (MaxPooling2D)         (None, 256, 16, 16)       0         
_________________________________________________________________
bn4 (BatchNormalization)     (None, 256, 16, 16)       1024      
_________________________________________________________________
act4 (Activation)            (None, 256, 16, 16)       0         
_________________________________________________________________
flatten_1 (Flatten)          (None, 65536)             0         
_________________________________________________________________
dense5 (XnorDense)           (None, 1024)              67108864  
_________________________________________________________________
bn5 (BatchNormalization)     (None, 1024)              4096      
_________________________________________________________________
act5 (Activation)            (None, 1024)              0         
_________________________________________________________________
dense6 (XnorDense)           (None, 151)               154624    
_________________________________________________________________
bn6 (BatchNormalization)     (None, 151)               604       
=================================================================
Total params: 68,304,604
Trainable params: 68,300,718
Non-trainable params: 3,886
_________________________________________________________________
Train on 2567 samples, validate on 453 samples
Epoch 1/50

  10/2567 [..............................] - ETA: 50:20 - loss: 1.9163 - acc: 0.0000e+00
  20/2567 [..............................] - ETA: 30:16 - loss: 1.9262 - acc: 0.0000e+00
…
