Dataset has been loaded
1224 train samples
216 test samples
_________________________________________________________________
Layer (type)                 Output Shape              Param #   
=================================================================
conv1 (XnorConv2D)           (None, 128, 71, 64)       1152      
_________________________________________________________________
bn1 (BatchNormalization)     (None, 128, 71, 64)       512       
_________________________________________________________________
act1 (Activation)            (None, 128, 71, 64)       0         
_________________________________________________________________
conv2 (XnorConv2D)           (None, 128, 71, 64)       147456    
_________________________________________________________________
pool2 (MaxPooling2D)         (None, 128, 35, 32)       0         
_________________________________________________________________
bn2 (BatchNormalization)     (None, 128, 35, 32)       512       
_________________________________________________________________
act2 (Activation)            (None, 128, 35, 32)       0         
_________________________________________________________________
conv3 (XnorConv2D)           (None, 256, 35, 32)       294912    
_________________________________________________________________
bn3 (BatchNormalization)     (None, 256, 35, 32)       1024      
_________________________________________________________________
act3 (Activation)            (None, 256, 35, 32)       0         
_________________________________________________________________
conv4 (XnorConv2D)           (None, 256, 35, 32)       589824    
_________________________________________________________________
pool4 (MaxPooling2D)         (None, 256, 17, 16)       0         
_________________________________________________________________
bn4 (BatchNormalization)     (None, 256, 17, 16)       1024      
_________________________________________________________________
act4 (Activation)            (None, 256, 17, 16)       0         
_________________________________________________________________
flatten_1 (Flatten)          (None, 69632)             0         
_________________________________________________________________
dense5 (XnorDense)           (None, 1024)              71303168  
_________________________________________________________________
bn5 (BatchNormalization)     (None, 1024)              4096      
_________________________________________________________________
act5 (Activation)            (None, 1024)              0         
_________________________________________________________________
dense6 (XnorDense)           (None, 72)                73728     
_________________________________________________________________
bn6 (BatchNormalization)     (None, 72)                288       
=================================================================
Total params: 72,417,696
Trainable params: 72,413,968
Non-trainable params: 3,728
_________________________________________________________________
Train on 1224 samples, validate on 216 samples
Epoch 1/30

  10/1224 [..............................] - ETA: 17:28 - loss: 1.9624 - acc: 0.0000e+00
  20/1224 [..............................] - ETA: 11:24 - loss: 1.9489 - acc: 0.0000e+00
…
