Dataset has been loaded
306 train samples
54 test samples
_________________________________________________________________
Layer (type)                 Output Shape              Param #   
=================================================================
conv1 (XnorConv2D)           (None, 128, 71, 64)       1152      
_________________________________________________________________
conv1_a (XnorConv2D)         (None, 128, 71, 64)       147456    
_________________________________________________________________
pool1 (MaxPooling2D)         (None, 128, 35, 32)       0         
_________________________________________________________________
bn1 (BatchNormalization)     (None, 128, 35, 32)       512       
_________________________________________________________________
act1 (Activation)            (None, 128, 35, 32)       0         
_________________________________________________________________
conv2 (XnorConv2D)           (None, 128, 35, 32)       147456    
_________________________________________________________________
conv2_a (XnorConv2D)         (None, 128, 35, 32)       147456    
_________________________________________________________________
pool2 (MaxPooling2D)         (None, 128, 17, 16)       0         
_________________________________________________________________
bn2 (BatchNormalization)     (None, 128, 17, 16)       512       
_________________________________________________________________
act2 (Activation)            (None, 128, 17, 16)       0         
_________________________________________________________________
conv3 (XnorConv2D)           (None, 256, 17, 16)       294912    
_________________________________________________________________
conv3_a (XnorConv2D)         (None, 256, 17, 16)       589824    
_________________________________________________________________
conv3_b (XnorConv2D)         (None, 256, 17, 16)       589824    
_________________________________________________________________
conv3_c (XnorConv2D)         (None, 256, 17, 16)       589824    
_________________________________________________________________
pool3 (MaxPooling2D)         (None, 256, 8, 8)         0         
_________________________________________________________________
bn3 (BatchNormalization)     (None, 256, 8, 8)         1024      
_________________________________________________________________
act3 (Activation)            (None, 256, 8, 8)         0         
_________________________________________________________________
conv4 (XnorConv2D)           (None, 256, 8, 8)         589824    
_________________________________________________________________
conv4_a (XnorConv2D)         (None, 256, 8, 8)         589824    
_________________________________________________________________
conv4_b (XnorConv2D)         (None, 256, 8, 8)         589824    
_________________________________________________________________
conv4_c (XnorConv2D)         (None, 256, 8, 8)         589824    
_________________________________________________________________
pool4 (MaxPooling2D)         (None, 256, 4, 4)         0         
_________________________________________________________________
bn4 (BatchNormalization)     (None, 256, 4, 4)         1024      
_________________________________________________________________
act4 (Activation)            (None, 256, 4, 4)         0         
_________________________________________________________________
flatten_1 (Flatten)          (None, 4096)              0         
_________________________________________________________________
dense5 (XnorDense)           (None, 1024)              4194304   
_________________________________________________________________
bn5 (BatchNormalization)     (None, 1024)              4096      
_________________________________________________________________
act5 (Activation)            (None, 1024)              0         
_________________________________________________________________
dense6 (XnorDense)           (None, 18)                18432     
_________________________________________________________________
bn6 (BatchNormalization)     (None, 18)                72        
=================================================================
Total params: 9,087,176
Trainable params: 9,083,556
Non-trainable params: 3,620
_________________________________________________________________
Train on 306 samples, validate on 54 samples
Epoch 1/50

 10/306 [..............................] - ETA: 2:58 - loss: 1.8841 - acc: 0.1000
 20/306 [>.............................] - ETA: 1:36 - loss: 1.8631 - acc: 0.1500
…
